saved_model.pth (torch, 248944 bytes, 10 tensors)

conv1.weight f4 [6, 3, 5, 5]
000000 e3 47 d7 bc 86 b0 df 3d bb d2 af bc 43 bf ef bd
       -0.026279395 0.10922341 -0.021462789 -0.11706402
000010 7d 8e ec bc 56 96 36 bd 71 ba b8 bc 6e 14 9a 3d
       -0.028876537 -0.044576965 -0.02254984 0.07523428
000020 28 94 8f 3b 4c 70 c0 bd fc 29 af bc ec 7c 73 3d
       0.0043816753 -0.09396419 -0.021382324 0.059445307
000030 9f c7 1c 3c c2 76 63 bc 8e 43 80 3d d8 cb a9 bd
       0.009569078 -0.013883295 0.06262885 -0.08290833
000040 f2 c0 66 bd 95 c6 ac 3d 0a ea b1 bd 64 99 85 bd
       -0.05633635 0.08436314 -0.086872175 -0.065233976
000050 b4 6a 83 bc dd f8 29 bd a2 a0 c0 bc 5c d1 c6 bd
       -0.016042091 -0.0414971 -0.023514096 -0.09707901
000060 8d 1c 94 bc 84 4d c6 3d 7f 42 04 3d af 34 9b bd
       -0.01808002 0.09682754 0.032289978 -0.07578408
000070 5b 16 e2 bd 57 f1 65 bc f2 ec be 3d e1 3e ab bd
       -0.1103942 -0.014034591 0.093225375 -0.083616026
000080 fa 80 14 3c 86 bc be 3c 43 0e 91 bd 84 fd a6 bc
       0.0090639535 0.023283254 -0.07082798 -0.020384558
000090 c6 c0 c9 3c 15 06 c1 bc fd 7c b7 bd 3c be c5 3d
       0.024628054 -0.02356247 -0.089593865 0.09655425
0000a0 92 00 c3 bd ea 9a 43 3d e7 9b b3 3d 1a 54 5a 3d
       -0.09521593 0.04775516 0.087699704 0.05330286
0000b0 fe 72 98 bd d2 11 dc 3d 0b 2f 16 3d 8d 51 af ba
       -0.07443808 0.107455865 0.036665957 -0.0013375744
0000c0 d9 c2 22 3d d5 4b a0 bc c2 65 99 3d de d6 96 bc
       0.039736602 -0.01956741 0.07490112 -0.018413004
0000d0 50 78 0e 3d 15 61 8b 3c b3 cf 57 3d 0a b6 ac bd
       0.034782708 0.017014066 0.05268831 -0.08433159
0000e0 09 38 5f 3d 1a 68 c2 3d f5 5f a5 bb 6d c3 59 bd
       0.0544968 0.09492512 -0.0050468394 -0.05316489
0000f0 8a a3 a4 3d dd e6 8d bd b6 08 6e bd 8a 64 5f bd
       0.08039005 -0.06928799 -0.058113776 -0.05453924
000100 56 4d 1d bd c5 e7 d8 3c 4c 94 d2 3c 4f 9e e5 39
       -0.03840383 0.026477704 0.02570548 0.00043796233
000110 dd 30 d2 3d 77 cc b5 bd 28 2a c8 bc e7 e5 44 bd
       0.10263226 -0.08876889 -0.024434164 -0.048070814
000120 90 a9 5c 3c 19 ce cc 3d 51 30 4b bc 41 eb ae 3d
       0.013468161 0.100002475 -0.012401656 0.08540965
000130 b3 f6 2d 3d 3e fa 1c bd 28 92 a0 3d e4 31 c5 bd
       0.0424716 -0.038324587 0.07840377 -0.096286565
000140 8c 21 95 3d 08 18 eb 3d fd e2 09 3d 49 cc 68 bc
       0.07281789 0.11479193 0.03366374 -0.014208862
000150 ac d9 d5 3d 15 1e 4f 3d 1e aa 21 3c 57 cf a3 3a
       0.10441908 0.050565798 0.009867219 0.0012497705
000160 89 d3 94 3d c0 5d 6f 3d a1 5d 38 3d d2 7e 56 bd
       0.0726691 0.058439016 0.045011166 -0.05236704
000170 10 64 7d 3d b7 46 e0 bd 7c f0 65 3c 7c 7f 91 3d
       0.061863005 -0.10950988 0.014034387 0.07104394
000180 10 a9 9b bd b9 f5 ea 3d c4 19 be 3d 17 c3 97 bd
       -0.076006055 0.11472649 0.09282258 -0.07410257
000190 43 d4 5b bc d2 70 96 bd 95 78 a5 3d 44 0d 46 3d
       -0.013417306 -0.073457375 0.0807964 0.048352495
0001a0 8a a3 16 3b ee cb b0 bd a8 8a 9a bc 13 15 91 bd
       0.002298566 -0.086326465 -0.018864945 -0.07084098
0001b0 d1 3b d7 bd 7b 96 08 bd a7 44 7c bd 3b ce 46 3d
       -0.10509456 -0.033346634 -0.06158891 0.04853652
0001c0 56 1e 19 3d b1 36 69 bc 00 49 48 bd 0f 7f cd 3d
       0.037382446 -0.014234231 -0.048897743 0.10034
0001d0 4a e4 b8 bd be 73 27 3c 12 8e 4c bd a6 b4 9d 3d
       -0.09027918 0.010220466 -0.049940176 0.077004716
0001e0 90 d0 b5 3d 96 15 99 3d aa 54 a5 bd 14 91 94 bd
       0.08877671 0.0747482 -0.08072789 -0.07254234
0001f0 3b de 9b bc 67 92 81 3d 77 3b 98 bd 7d 9f 5b bd
       -0.019026866 0.06326752 -0.07433217 -0.053618897
000200 db 99 de bc 6e a9 7d bd 9a ae a5 bd 05 9c be bd
       -0.027172973 -0.06192916 -0.08089943 -0.09307102
000210 3d 99 19 3d d4 9d c6 bd 9c c9 b5 3d 0e cd b9 bd
       0.037499655 -0.09698072 0.088763446 -0.09072314
000220 d1 6e 8f bc 80 bc cf 3d 07 28 d1 bd 00 63 fd bb
       -0.017508896 0.101433754 -0.10212713 -0.007732749
000230 2d 79 4d 3d 19 e2 bf bd c0 50 2a bd 32 56 42 bd
       0.05016439 -0.093692966 -0.041580915 -0.047445484
000240 3f 44 6f bd 44 ab 94 3b 2a d3 02 bd 7c 84 d9 bd
       -0.058414694 0.004537018 -0.031939663 -0.106209725
000250 d2 27 72 3d d7 43 68 bd 4f b8 a4 bd 72 d2 c5 bd
       0.059120007 -0.056705322 -0.080429666 -0.0965928
000260 af f8 8c bd bd 30 bc bd e0 b1 95 bd 3a 8e d0 3d
       -0.0688337 -0.091889836 -0.073093176 0.101833776
000270 3c f8 02 bd 65 dc 48 bc 98 be 03 3d 43 05 6b bd
       -0.031975016 -0.012259577 0.032164186 -0.057378065
000280 30 76 59 3d 55 41 f8 bc f5 03 34 bd 58 b5 e9 3d
       0.053091228 -0.03030459 -0.043949086 0.11411542
000290 a4 76 e5 3c 43 15 d4 3d 1e 24 b1 3c 91 f9 03 bd
       0.028010674 0.10355618 0.021623667 -0.032220427
0002a0 bf d6 9a 3d 97 7f ae bd c7 da 15 3d 21 c0 b1 bd
       0.07560491 -0.085204296 0.036585595 -0.08679224
0002b0 2d c6 dc 3d 9a c6 ba bd bf 42 9f bd 3a ab 46 bd
       0.107799865 -0.091199115 -0.07776403 -0.048503138
0002c0 27 66 0e bd 77 83 cd 3d d3 24 d1 bc 09 5e ae bd
       -0.03476539 0.100348406 -0.025530254 -0.085140295
0002d0 21 65 d2 bd 8b 4c de ba 8b c3 c6 3d 42 c8 b2 3d
       -0.10273195 -0.0016960067 0.097052656 0.087296024
0002e0 b3 ad d9 bd 86 7b a7 3c 4d aa f7 bc 28 0a d0 3d
       -0.106288336 0.020444643 -0.030232573 0.10158187
0002f0 43 df b6 3c 0b 1b 4f 3d 7a c0 ad 3b c9 02 0f 3d
       0.022323256 0.0505629 0.005302486 0.034914766
000300 cd b7 25 bd 31 35 9d 3a ed 6e b3 bd 91 32 a4 3d
       -0.04045849 0.0011994002 -0.08761392 0.08017457
000310 52 2a 21 3d 6e 30 18 bd 55 8b e5 bc 47 63 35 bd
       0.039347 -0.03715556 -0.02802054 -0.04428413
000320 b8 2e c8 bd 1f 87 51 3d 81 29 e3 bd 47 7b d5 3d
       -0.09774536 0.051154252 -0.110919006 0.10423904
000330 04 2d cc 3d f6 c6 af bd ce 31 ca 3c 63 41 c5 3d
       0.099695235 -0.08582871 0.024681952 0.09631612
000340 c4 cc cd bc c6 7e 8c bd f4 47 79 3d 6d 99 eb 3d
       -0.025122054 -0.068601176 0.060859635 0.11503873
000350 37 68 c0 bd 8a 4d ba bd 38 bd 99 3d 65 2c da bc
       -0.093948774 -0.09096821 0.07506794 -0.026632497
000360 91 0a 43 bc 4d 80 14 bd a3 85 bf 3d ff 81 20 bd
       -0.011904375 -0.03625517 0.09351661 -0.039186474
000370 a1 09 40 bd 9a 3e 3d 3d 03 3b a2 3d 21 5f e8 bc
       -0.046884183 0.04620228 0.07921412 -0.028365673
000380 9f d4 eb bb 26 e4 32 3d 49 31 8a 3d 71 8e 3d 3e
       -0.0071969773 0.04367461 0.06747682 0.18511368
000390 25 fc 2b 3c 62 c9 c8 3d e8 4d 10 3c 57 7c 09 3e
       0.010497128 0.09804036 0.008807637 0.13426338
0003a0 a1 89 42 3d 90 6d 83 3c 4e 3f 88 3d f3 07 16 3e
       0.047494534 0.016043454 0.066526994 0.1465147
0003b0 eb b2 09 3e 71 5f 30 3c d1 da f1 bc b4 a3 86 3d
       0.13447158 0.0107649425 -0.029523285 0.06574193
0003c0 cb 6f d4 3c f6 6e 88 3d f5 e1 97 3d 5e 58 fc 3d
       0.025932213 0.06661789 0.07416145 0.12321542
0003d0 30 78 29 3e 4c 98 5d 3b 22 9d b3 bc bb b6 47 b9
       0.16549754 0.00338127 -0.021925513 -0.00019046191
0003e0 55 bc 33 3e 7e 81 6f bd 98 d7 fa 3d 29 6a ba 3d
       0.17552312 -0.058473103 0.122481525 0.0910228
0003f0 44 ae 95 3d 0c ba 2d bd e2 68 e2 bc 50 14 27 3d
       0.07308629 -0.042413756 -0.027637903 0.040790856

conv1.bias f4 [6]
000000 7c 93 ba bd 3c 6a 64 bd 5d 52 de 3d 2c 28 8a 3c
       -0.09110162 -0.055765375 0.10855553 0.016864859
000010 37 11 ac bd 85 9d a8 3d
       -0.08401721 0.082331695

conv2.weight f4 [16, 6, 5, 5]
000000 8c e9 91 3c 2a 01 cd 3c 07 ec 98 3d 0f 34 38 bc
       0.01781156 0.02502497 0.07466894 -0.0112428805
000010 0e ce 86 bd 4b 84 64 3d 17 7c 32 bd 86 6b 42 3d
       -0.065822706 0.055790227 -0.043575373 0.047465824
000020 71 62 75 3d 53 de 8f bd 0f fa 37 3d 57 5d 4f 3d
       0.059908334 -0.07024827 0.04491621 0.050626125
000030 cb 21 2e 3d b1 bd 95 3c e1 c7 60 bb 90 7a 14 bc
       0.042512696 0.018278928 -0.0034298825 -0.009062424
000040 6f e7 a9 bc 03 b1 9b bc 43 af 7c bc 75 53 44 bd
       -0.020740239 -0.019005304 -0.015422645 -0.047931153
000050 d9 0b 87 3d d2 d8 3c bd a1 3e 8b 3c 52 3a a3 bd
       0.06594057 -0.046105213 0.016997637 -0.07970108
000060 b5 fa e7 3b 10 13 5c bd 24 bd 33 3d f6 b5 75 3d
       0.007079447 -0.053729117 0.04388155 0.059987985
000070 43 44 43 bd 09 aa 7b 3d 58 3e 45 bd c5 42 db 3c
       -0.04767252 0.061441455 -0.04815516 0.026765237
000080 c5 70 a2 3d ef 28 02 bd 3f e7 84 bd 6a d1 e3 bc
       0.07931665 -0.03177732 -0.06489419 -0.027809817
000090 ba 80 99 bc af b9 7c 3d 5f 7b 83 3d a2 4f 59 3d
       -0.01873814 0.06170052 0.064200155 0.05305446
0000a0 f7 37 89 bd 74 45 df bc af 93 7a bd c0 d7 1b bd
       -0.067001276 -0.027254798 -0.061176 -0.038047552
0000b0 c3 90 06 bd c2 43 58 bd 74 6d 65 3d 69 26 b1 3c
       -0.0328529 -0.052798994 0.056012586 0.02162476
0000c0 dd 8c 03 3d cc c6 48 3d fd 32 8b 3d 15 8e bf bc
       0.03211676 0.049017712 0.067968346 -0.02338318
0000d0 7f f4 0f 3d 26 8f 6b bd a1 31 47 bc 18 01 2f bb
       0.03514528 -0.057509564 -0.012157829 -0.0026703533
0000e0 40 c8 a6 3c 70 61 32 3c 0d e0 30 ba cd 3a ee bb
       0.020359159 0.010887489 -0.00067472534 -0.007270193
0000f0 01 0a 3e 3c 3a e7 da bc 10 b5 89 bc 01 4e 8a bc
       0.011599065 -0.026721586 -0.01680997 -0.016882898
000100 22 01 8b bc 7c 46 19 3d 05 99 25 bd d2 66 29 3d
       -0.016968314 0.037420735 -0.040429134 0.041357823
000110 35 61 ee 3c 47 5d 00 3d 20 b0 03 bd 48 91 d5 3c
       0.029099086 0.031338956 -0.032150388 0.026070252
000120 69 e6 73 bd 15 16 4a bd c4 39 89 3d 39 ac 9b 3d
       -0.059545908 -0.049337465 0.06700471 0.07601208
000130 fb ce f1 3d d5 a3 66 3d 47 a9 02 3d ff 69 99 3d
       0.118070565 0.056308586 0.031899717 0.0749092
000140 7a 9a 4c 3d a7 3e 4a bd ef 16 ae 3d 7d 5d 96 bd
       0.049952008 -0.049376156 0.08500468 -0.0734205
000150 f6 20 54 bd 9c a6 6e 3d fc 4f b7 3d e3 59 0f 3d
       -0.051789246 0.05826436 0.08950803 0.034997832
000160 33 bb 95 bd 21 52 53 bd b0 24 9d bc 6d 65 75 bd
       -0.07311096 -0.051591996 -0.019182533 -0.05991118
000170 e7 fd 39 bd bb 37 5c 3d 7f 6b d6 bd 51 3d 82 3d
       -0.045408156 0.053764086 -0.10469722 0.063593514
000180 50 2c 98 bc ab 2a b2 bd b7 12 a4 bd d8 88 f6 bd
       -0.018575817 -0.086995445 -0.08011382 -0.120378196
000190 93 d6 ac 3d ba 29 0a 3d 38 1d 08 3e 4a 58 fa 3c
       0.08439364 0.0337312 0.13292396 0.030559678
0001a0 94 76 15 3d 96 64 1e 3d 56 0e f4 3c 67 33 c1 3d
       0.036490038 0.038670145 0.029791992 0.09433632
0001b0 a4 ac b6 3c f5 a5 bc bb b1 38 c9 3d 5d aa 4c bd
       0.022299118 -0.0057570883 0.09825266 -0.04996716
0001c0 e1 60 18 bd 92 c1 1f 3c c0 f6 92 bd d5 f9 af 3d
       -0.037201766 0.009750741 -0.0717597 0.085925736
0001d0 8d d4 71 bd a0 4a 5a 3d 83 81 94 bd c1 f3 ec bd
       -0.059040595 0.053293824 -0.07251265 -0.1156993
0001e0 bf b1 38 3d 65 58 84 3d cd b0 7b bd 60 48 d4 bd
       0.045091387 0.064621724 -0.061447907 -0.10365367
0001f0 3a f4 17 be 06 27 84 3c 1e 4c 2e 3d e2 f8 1b 3b
       -0.14839259 0.01613189 0.04255306 0.0023799469
000200 c9 57 a4 3d 0f 58 bc 3d bf ec 19 bd e7 af 8b bd
       0.08024556 0.09196483 -0.037579294 -0.0682066
000210 d7 a4 bd bc da 05 99 3d 0e 0c be 3d 50 f9 72 3d
       -0.02314989 0.07471819 0.09279643 0.059319794
000220 95 39 67 bd 28 d5 40 3c 7f af 7a 3c 64 eb 4d bd
       -0.0564514 0.01176957 0.015300631 -0.050273314
000230 e6 f3 e8 3c 22 9b 17 3d f7 21 40 bd 0d 44 40 bd
       0.028436612 0.03701318 -0.04690739 -0.0469399
000240 a7 c4 3f 3c cf a8 76 3d af 1e c1 3c e7 d9 44 3c
       0.0117046 0.060219582 0.023574201 0.012014843
000250 80 c7 ee 3c 27 c1 8e bd 81 e4 99 bc c9 35 13 3d
       0.029147863 -0.06970435 -0.018785717 0.035939965
000260 b1 19 3e 3d 31 1c 80 3d 42 db 51 3d 06 46 b0 bc
       0.04641122 0.06255377 0.05123449 -0.021517765
000270 cc 9b 29 3d 5a 98 1a 3d c4 dc 1b bd 95 62 01 3d
       0.041408345 0.03774295 -0.038052335 0.031588156
000280 9e 4a 99 3d 42 dd 3b 3d 78 ec 4e 3d 64 b7 97 3d
       0.07484935 0.045865305 0.050518483 0.07408026
000290 ce bb bc 3c 24 8c f9 3c 7c df f2 3c 75 a3 82 3d
       0.023038771 0.030462332 0.029647581 0.06378833
0002a0 97 34 11 bc fa 2e 99 3d 6f ee d3 bb fa 48 2f 3b
       -0.008862636 0.07479663 -0.0064676325 0.0026746378
0002b0 5f 31 81 3d 36 46 11 bd 90 8b 2d bd e9 23 80 3d
       0.06308245 -0.03546735 -0.042369425 0.06256849
0002c0 1a 5b c5 bc 18 43 a6 3d 02 b9 5b bd 5c 3e d7 3c
       -0.024091292 0.08118266 -0.053643234 0.026274852
0002d0 65 bd b6 bb a6 35 43 3d 8c 2d bf 3b 2b cc 3f 3d
       -0.005576777 0.047658585 0.005834287 0.04682557
0002e0 e6 32 b1 bc 0e 2a 62 3d a6 f1 ab 3c c9 1e 8f bd
       -0.021630716 0.055215888 0.02098925 -0.06988294
0002f0 3c ac 84 3d f4 b7 b8 3c bf 04 2b bc 2f f6 8c bd
       0.064781636 0.022548653 -0.010438143 -0.06882893
000300 26 0d f6 bc d7 7d c4 3a c6 f7 30 bd 8a 27 a2 3d
       -0.030035567 0.0014991116 -0.043205045 0.07917698
000310 24 19 9f bd 56 e5 98 3d 06 11 87 bd c0 af c1 3c
       -0.07768467 0.07465617 -0.06595044 0.023643374
000320 52 76 84 3d ba 78 22 bd 46 29 3a 3c 3a f9 ed bc
       0.0646788 -0.039665915 0.011362379 -0.029049505
000330 4b f9 44 bc cd 95 37 bc 89 cc 6a 3d a1 15 ad 3c
       -0.012022327 -0.011205149 0.057323966 0.021128478
000340 91 ad b6 bb af 1d e9 bc 99 a7 57 3d 17 e7 14 bd
       -0.00557489 -0.028456537 0.052650068 -0.036353197
000350 e8 f9 d8 3c cf 89 18 3d d2 f9 cf bb 86 bb 87 39
       0.026486352 0.0372408 -0.0063469196 0.00025888922
000360 55 94 89 bd 91 fe 9d 3c 14 21 77 bd 81 27 96 bc
       -0.06717745 0.019286426 -0.06033428 -0.018329384
000370 1e 40 2e bd 30 44 62 3d af 05 81 bd 02 4b 6d 3d
       -0.042541616 0.05524081 -0.06299912 0.05793286
000380 26 17 91 3d 88 36 4b 3c 29 86 db 3c 5d 71 27 bd
       0.07084493 0.012403138 0.026797371 -0.040879596
000390 31 47 03 bd 56 db ca 3d 0a cd 8c 3c 2e 08 3c 3d
       -0.032050315 0.09905116 0.017187614 0.04590624
0003a0 dc 04 5f bd 50 40 9b 3d f7 bb e6 bc a5 a2 0b bd
       -0.054447994 0.07580626 -0.0281658 -0.034090657
0003b0 89 c5 09 3d 28 b6 a2 bc 5b 9f b4 3d e9 e3 ca 3d
       0.03363565 -0.01986225 0.08819457 0.09906752
0003c0 bc 27 1b 3c 97 cf b9 bd 21 65 69 bd d9 3f 9c 3d
       0.009469923 -0.09072798 -0.05698121 0.076293655
0003d0 1b a7 bf 3d 1f b3 5a bd 55 ef ac bd 25 72 96 bd
       0.09358045 -0.05339348 -0.084440865 -0.0734599
0003e0 19 47 58 3b 9e aa 2e 3a d8 f5 09 bc 86 bc 3f bc
       0.0033001362 0.0006662997 -0.00842043 -0.011702662
0003f0 a2 5e 48 bd 59 51 cc 3d 73 f3 90 3d f9 62 62 3d
       -0.048918374 0.09976453 0.07077684 0.05527017

conv2.bias f4 [16]
000000 9e d9 0a bd 61 e7 6a bb 8c c2 a8 3d 39 b5 95 bd
       -0.033898942 -0.003584348 0.08240232 -0.07309956
000010 e3 2c 15 3d 00 df 82 bc eb 86 bc 3d 0c 47 88 3d
       0.03641976 -0.015975475 0.09205421 0.06654176
000020 16 7b 63 3c 55 44 04 bc e2 35 92 3d bf 4a b0 bc
       0.013884326 -0.008072932 0.071391836 -0.021520017
000030 68 08 65 3d 5c 75 04 3d 35 cc bb 3d 38 11 2f 3d
       0.05591622 0.032338485 0.09169809 0.04274103

fc1.weight f4 [120, 400]
000000 32 84 e7 3c f1 52 f3 3c ec ba 3e 3b c9 a6 a0 bc
       0.028261278 0.029702635 0.0029103113 -0.01961078
000010 17 36 4a bc 51 f1 03 bd 90 40 64 bb ef 1a 0f bd
       -0.012341998 -0.03221256 -0.0034828521 -0.034937795
000020 67 c6 7a 3c d4 d9 40 3d 4b a6 b9 3b 63 5e 40 3c
       0.015306092 0.047082737 0.0056655756 0.011741254
000030 24 ba 8a bb dc ea f0 bb da 40 02 3d f5 f1 d8 3c
       -0.0042336155 -0.007352216 0.03180013 0.026482562
000040 01 c1 0c 3d 60 8e 39 bd d5 a3 c2 3c 6b 63 a8 3c
       0.03436375 -0.045301795 0.023759762 0.020555219
000050 25 f0 3d 3d a7 28 87 bc 39 ad 49 3b e5 4f 09 bc
       0.046371598 -0.016498877 0.0030773415 -0.008380865
000060 d6 8e bb bb 9a df 2d 3d c4 34 d9 bb 7a cf 37 bd
       -0.0057238145 0.04244957 -0.0066286046 -0.0448756
000070 8b 6e de bc 02 b7 2c bd 25 0c 8d bc f2 06 19 3d
       -0.02715232 -0.042166717 -0.017217705 0.03736014
000080 47 93 2a 3d ef 7a 42 bc d6 fa 0c bd fa 14 08 3d
       0.04164436 -0.01187013 -0.034418903 0.03322313
000090 1d 7f 5c 3c 62 d5 42 3d 77 f8 16 bd 25 0f bb bb
       0.013458041 0.04756678 -0.03685805 -0.0057085925
0000a0 4c d3 da bc 82 f8 d2 bc fd 95 e1 ba 47 8f 88 bc
       -0.026712082 -0.025753263 -0.0017210838 -0.016669882
0000b0 a1 05 3f bd 11 09 2a bc 47 d1 0f 3d 68 6e e6 bc
       -0.046636228 -0.010378138 0.03511169 -0.028128818
0000c0 b8 ad 32 3d 2c c0 33 3c a3 b0 2e 3c 29 dd 11 3c
       0.043622702 0.01097111 0.010662231 0.008902826
0000d0 18 b2 46 3d 76 ac c8 bc c9 42 9d bc 8b 4d 28 bd
       0.048509687 -0.024496298 -0.019196885 -0.041089576
0000e0 4d d1 1d 3c 88 b9 fc bc 1b 05 06 3d 7d 63 90 bc
       0.009632421 -0.030850187 0.032719713 -0.017625565
0000f0 0f 42 1f 3c c9 7d a2 bc 29 58 15 bb 75 bf 76 3c
       0.009720339 -0.01983537 -0.0022788143 0.015060295
000100 69 84 4a 3c 77 16 69 3c f7 94 04 bb 1d c0 ef bc
       0.012360671 0.014226547 -0.0020230392 -0.029266411
000110 74 fa 32 3d d4 a0 29 3d 91 c7 8c bb 40 8e 46 bc
       0.043695882 0.041413143 -0.004296251 -0.012118876
000120 ef ae 41 3d f3 fb 4a 3d c1 57 04 3d 00 fe 5a bc
       0.04728597 0.049556684 0.03231025 -0.013366222
000130 eb 62 75 3b 82 b4 3b 3d 2e 17 ff bc 4f dc 24 bd
       0.0037442993 0.045826443 -0.031138983 -0.040249165
000140 08 a1 21 bc 35 48 24 bd 96 f8 47 bd b6 bf 32 3d
       -0.009865053 -0.040107924 -0.048821054 0.04363986
000150 b3 1a 3b bc e0 e9 58 bc a9 8d 0b 3d 17 ac 3f bd
       -0.01141994 -0.013239354 0.034070645 -0.046794977
000160 28 54 3c bc cc 11 e6 bc 00 80 a1 38 5a 36 45 bc
       -0.011494674 -0.028084658 7.70092e-05 -0.012036884
000170 bf f4 73 bc 0d 2b d4 ba 3d 4a d4 bc 00 e2 29 bd
       -0.014889895 -0.0016187147 -0.025914306 -0.041475296
000180 f8 6e 25 3b 47 60 36 bd b8 2d 38 bd 6e 05 a6 bc
       0.0025243144 -0.04452541 -0.044965476 -0.020266261
000190 c3 fd c6 bc cb 88 eb 3c 5f 05 98 3c 46 fc cb 3c
       -0.024290925 0.028751751 0.018557249 0.024900567
0001a0 07 47 f6 bc 8d 52 1b 3d 1d 34 7e bc f3 15 c5 bc
       -0.030063165 0.037920523 -0.015515354 -0.024058318
0001b0 ef 4f 25 3d 93 3b 0a bd 0f c8 cb bc ff 1f 82 bc
       0.040359434 -0.03374822 -0.024875669 -0.015884398
0001c0 5d 1b 37 bd 4e c1 20 3c a5 c5 88 3c f1 c2 37 3d
       -0.04470383 0.009811712 0.016695807 0.044863645
0001d0 18 79 1a 3c d2 20 b6 bc 2c a6 c8 3c 90 f3 1d 3d
       0.009428285 -0.022232447 0.0244933 0.038562357
0001e0 4e 03 ba 3c 00 9e f7 3c 19 ba 67 bc 6e 82 45 bd
       0.022706654 0.030226707 -0.01414349 -0.04822009
0001f0 d9 10 17 3c fd 66 1c 3d 99 62 dc bc dc 0c 4b bd
       0.009220325 0.038184155 -0.026902484 -0.04957281
000200 fd f0 5d bc 8f 7b 04 3d e1 69 a7 3c 94 6e 07 3d
       -0.013546226 0.032344397 0.02043623 0.03306444
000210 b9 e7 78 ba 0f 4b e9 3c 1b d1 3c bd fb 5e 38 3c
       -0.00094949786 0.028478174 -0.046097856 0.011253114
000220 8c b0 9c 3c ec ca ad bc 82 cc 2f bd fd 16 68 bb
       0.019127153 -0.021214925 -0.042919643 -0.0035414093
000230 ea e6 2f 3d bb d1 26 3c 11 22 f6 3a da ae ae bc
       0.042944826 0.01018184 0.0018778463 -0.02132361
000240 8a 99 3f 3d 0f 4f ef 3c 7a d8 24 3d ed e4 9a 3b
       0.046777286 0.029212503 0.04024551 0.004726997
000250 02 7d 04 3a a4 0a 3e bd a5 e5 3a 3d 48 d6 2a bd
       0.0005054028 -0.046396866 0.045629162 -0.04170826
000260 60 6b fe 3c fe 6f 37 3c e1 b2 39 3d d3 2e 38 3d
       0.03105706 0.011196135 0.045336608 0.04496653
000270 40 c0 0d 3d 79 f9 16 3d dd f4 8a bb f5 97 4a bc
       0.034607172 0.03685901 -0.0042406158 -0.012365331
000280 c6 05 df 3c 80 b6 e4 3c b6 08 19 bd 0d cf 04 3d
       0.027224433 0.027919054 -0.037361823 0.03242402
000290 05 22 06 3d 6a 0d 4b bd 55 8b 20 3d 93 8c 84 bc
       0.032747287 -0.04957334 0.039195377 -0.016180312
0002a0 18 99 48 3d 31 23 cf 3c d6 3e e6 3b 23 ba 2d bc
       0.048974127 0.025285335 0.0070265336 -0.0106034605
0002b0 c9 fb 3b 3d 18 43 0d bd c8 c0 a4 3c bb cb d3 3c
       0.045894418 -0.034487814 0.020111457 0.025853982
0002c0 cd 6f c6 bc 39 0b 02 3c fe d8 af 3c 42 58 93 3c
       -0.024223233 0.007937246 0.021465775 0.01798642
0002d0 40 87 db 3c c7 a9 e3 3c f4 ff 1a bc d5 03 42 bd
       0.02679789 0.027790917 -0.009460438 -0.047366936
0002e0 bf f3 c1 3b 77 07 0e bd c2 f1 3d 3d 17 c3 b7 3c
       0.0059189494 -0.034675088 0.046373136 0.022431893
0002f0 ea 94 17 bd b2 b7 04 3d 62 6f 69 3c 13 21 cd ba
       -0.03700725 0.032401748 0.014247747 -0.0015650116
000300 02 01 f3 bc 27 01 43 bd d1 6a 84 3c f8 4a e7 bc
       -0.029663566 -0.04760852 0.016164215 -0.02823399
000310 40 ce d3 3b 85 ef c8 bc 7e 16 05 3d 60 6e 19 3c
       0.006463796 -0.024528274 0.032492153 0.009364694
000320 d4 cb cd bc 8a c7 c4 3c 2b b2 37 bd 3f 8f a1 3c
       -0.025121607 0.024020929 -0.04484765 0.019721625
000330 0e 73 9a 3c 79 73 dc 3b 50 48 a7 bc a2 e6 01 3c
       0.01885369 0.0067276326 -0.020420223 0.007928522
000340 bd 3a 7d bc 56 82 09 3b 0a 66 a9 bb fd 14 b6 ba
       -0.015455899 0.0020982227 -0.0051696347 -0.0013891753
000350 04 94 21 3b e5 1c 71 bc 57 b5 34 bd ae 78 24 bd
       0.0024654875 -0.014716362 -0.04411825 -0.04015415
000360 ea 36 44 bd ec 31 02 bd 41 7a 28 bc 90 8b 73 3c
       -0.047903933 -0.03178589 -0.010283054 0.014864817
000370 32 4e 16 3c 27 b3 94 3c 6c 74 33 bc 56 df 04 bc
       0.009173917 0.018151833 -0.01095305 -0.008109888
000380 4c 6b 46 3d bd ee b0 bb 43 76 29 bd 73 9b 15 3d
       0.04844217 -0.0053995536 -0.04137255 0.0365252
000390 98 e5 55 bc 7e 72 8f 3c f6 a3 93 3c e0 63 36 bb
       -0.013055228 0.017510649 0.018022519 -0.0027830526
0003a0 6b c4 1a bd 10 f9 44 bd 6d e8 3f 3d 11 16 4c bd
       -0.037784975 -0.048089087 0.046852518 -0.04982573
0003b0 17 24 16 39 00 70 fd bc f1 a8 cb bb 2a 05 4a 3d
       0.00014318559 -0.030937195 -0.0062152077 0.04932133
0003c0 08 02 3c bd 10 0e e9 bc db 39 e5 bc 06 6c 1a 3c
       -0.045900375 -0.028449088 -0.02798169 0.009425169
0003d0 f8 55 35 bd 45 98 0f 3c 0d 07 62 bc 4d 32 b4 bc
       -0.04427144 0.008764331 -0.013795626 -0.021996642
0003e0 9f cc 4c 3d 44 f5 69 3c e9 a3 63 ba fb 7d 99 3c
       0.04999983 0.014279667 -0.00086837873 0.01873683
0003f0 e4 63 0b bd 0c b9 ad 3c 89 3a d3 3c 7e 0f dc 3c
       -0.03403081 0.021206401 0.025784748 0.026862856

fc1.bias f4 [120]
000000 11 00 26 bd 62 74 57 bd ba dd 6c 3c 1e 78 79 3d
       -0.040527407 -0.052601226 0.014457161 0.06090557
000010 59 90 53 bc 1d 59 0e 3d 7c 49 36 3d 15 4a 30 bc
       -0.012912833 0.034752954 0.044503674 -0.01075985
000020 f5 0f 77 bc 78 03 59 3c df 64 45 3d db c2 4f 3d
       -0.015079488 0.013245456 0.0481919 0.050722938
000030 03 c2 2e 3d 90 25 94 3c f4 3e 90 3c c5 5b 7d 3c
       0.042665493 0.018084317 0.017608143 0.015463774
000040 bf e3 72 3c 5c b4 43 bc 1e d6 d3 3c c6 ac ad bc
       0.014824807 -0.0119448565 0.025858935 -0.021200549
000050 98 fd 0f 3c 3a 03 75 3c d4 c8 4d bd 89 96 6b bc
       0.008788489 0.014954383 -0.050240353 -0.014379152
000060 64 f1 99 bc e5 e0 0e bd 60 06 58 bd c7 11 2b bd
       -0.018791862 -0.034882445 -0.052740455 -0.041765
000070 f6 b2 b1 3c 51 7d 48 bc 04 4a 9f bc 2e b7 b4 bb
       0.02169178 -0.012236909 -0.019444473 -0.005515001
000080 51 2f 2c 3d fa 0f 3e bb da 70 1e bc 14 01 8c bc
       0.042037312 -0.0029001222 -0.009670461 -0.017090358
000090 4d 51 30 3d 27 f3 c4 bc 96 bb 2a 3d 83 24 cd bc
       0.043046284 -0.024041725 0.041682802 -0.025041824
0000a0 57 65 49 bd a9 f7 9a 3c 33 27 08 bc df 80 1e bd
       -0.04916891 0.018916922 -0.008310127 -0.03869712
0000b0 c5 32 1d bc 74 b9 2c 3d 78 6e 77 3c 58 50 a7 3c
       -0.009594624 0.04216905 0.015102021 0.020424053
0000c0 11 cd d3 bc 91 35 60 3c 93 2a c4 3c 0b 96 2c 3a
       -0.02585462 0.013684646 0.023946082 0.00065836374
0000d0 68 13 68 bb 24 09 9f 3d 48 da 11 3d aa 04 18 3c
       -0.0035411958 0.07765415 0.03560856 0.009278456
0000e0 65 fd e1 3a 13 cb 7d bc 26 82 b6 bc 48 f2 25 3d
       0.0017241655 -0.015490311 -0.022278856 0.04051426
0000f0 f1 5f b6 bc b2 05 23 3b 4c 17 86 bc a1 ae 03 bd
       -0.022262545 0.002487522 -0.01636853 -0.03214896
000100 5e 90 4f 3c b6 65 84 bc 60 5f 48 bd 8c 59 2c bd
       0.012668697 -0.01616178 -0.04891908 -0.042077586
000110 05 09 25 3d ce 4b 1a 3d ac 7d 45 bc 20 61 47 bc
       0.040291805 0.03766995 -0.012053888 -0.0121691525
000120 68 2c c8 bc 68 80 00 bd ab 8d ab bc 5c ea 82 bc
       -0.024435237 -0.031372458 -0.020941576 -0.015980892
000130 c3 6e 30 bd c1 9a 8d bc d5 56 2a 3d 97 73 de 3b
       -0.04307438 -0.017285706 0.041586716 0.0067886817
000140 1d 4b 2c bd 62 73 17 bd cd 09 43 bc 43 7b 49 bc
       -0.04206382 -0.036975272 -0.011904192 -0.012297454
000150 9a 1b 26 bd b1 6f f4 ba ad ba d5 bc 78 86 3b 3c
       -0.040553667 -0.0018649009 -0.02608999 0.011445634
000160 22 ff bf 3c 88 b2 01 3d b8 e6 83 3c ea e7 1e bc
       0.023437086 0.0316644 0.016101226 -0.009698847
000170 2c 2f 2b bc 82 74 07 3d a4 e0 1c bd 80 32 b1 3c
       -0.010448258 0.033070095 -0.03830017 0.021630526
000180 ea 97 45 3d 7a be c5 bc 51 99 0c bd 8a 69 09 3d
       0.04824058 -0.024138678 -0.0343259 0.033547916
000190 5d 40 57 3d 33 a2 2e 39 67 df 23 3b 16 82 32 bd
       0.052551616 0.00016654357 0.0025004984 -0.04358109
0001a0 44 79 a5 bb 5a 83 84 3c c5 aa d9 3a 3d 03 eb 3c
       -0.0050498564 0.016175915 0.001660668 0.028688068
0001b0 66 fd 0b bd 17 d5 05 bc a6 4d 58 3a 77 ef 0f 3d
       -0.034177206 -0.00816848 0.00082513166 0.03514048
0001c0 5f e3 3b 3d 10 cb df 3c 6b 4a 4a bd 8f 2b 70 bd
       0.045871135 0.027318507 -0.049387377 -0.05863529
0001d0 fb fb 3a bd 48 3c 15 3c 9b bb b6 bc 33 47 ad 3c
       -0.045650464 0.00910861 -0.022306254 0.021152114

fc2.weight f4 [84, 120]
000000 61 57 a0 bd fe 3c 31 bd c8 26 a5 bd ed c7 96 3d
       -0.07829166 -0.043271057 -0.080640376 0.073623516
000010 00 bb 31 bd 14 61 93 3d 42 35 92 3c 8e 5f 96 bd
       -0.043391228 0.071962506 0.01784766 -0.07342444
000020 a5 04 71 bc 0a 92 85 3d 2d 14 3f 3d ab 65 ad 3d
       -0.01471058 0.06521995 0.0466501 0.08466657
000030 2a d5 af bd e2 80 8d 3d a2 26 b9 3d 2d 2f 83 bc
       -0.0858558 0.06909348 0.09040572 -0.016013706
000040 ea c3 c5 bb 2e c1 9d bd d8 0f 9d bd 0e 1d 38 3c
       -0.0060353177 -0.07702862 -0.076690376 0.011237396
000050 f0 0b af 3c cb 9e df 3c 72 17 94 bb 8f c3 a1 3d
       0.021367997 0.027297398 -0.0045193965 0.07898628
000060 53 c1 38 3c 2c 91 17 3d 65 e3 c6 3c 44 55 30 3d
       0.011276561 0.03700368 0.024278352 0.043050066
000070 eb 95 c9 3c 47 16 6c bd 6b 5e a0 bd 1e 4d ba bc
       0.02460762 -0.057638433 -0.07830509 -0.02274185
000080 34 56 2e 3d 54 87 95 bd 22 3f b6 3d 5d 99 87 bc
       0.04256268 -0.073012024 0.088987604 -0.016552621
000090 ad 7d 5b 3d 79 f8 3d 3d c8 5a b0 3d 10 7b bd bb
       0.05358665 0.04637954 0.08611065 -0.0057824925
0000a0 e6 c9 4b bc fd e1 ab 3d c3 3e ac bd 06 52 1d bd
       -0.012438273 0.08392713 -0.08410408 -0.0384083
0000b0 89 e9 f8 3c 29 94 ac bc 82 8b 48 bd 03 10 72 3d
       0.030384796 -0.021066742 -0.04896117 0.0590973
0000c0 34 0f a5 bd a5 d7 66 3d 0f 22 f1 3b 91 20 83 bd
       -0.080595404 0.056358 0.0073587964 -0.06402696
0000d0 f1 ea 3c 3d cf ef 94 3d f7 ef 49 bc c1 22 9e bd
       0.046122495 0.07272302 -0.0123252785 -0.077214725
0000e0 66 64 3e bd 5f f7 97 bb 7c 44 3d bd 26 6f 02 3d
       -0.046482466 -0.004637643 -0.04620789 0.03184428
0000f0 76 9b da bc 85 98 2d bd 64 ed 87 bd 3f 53 e2 bc
       -0.026685458 -0.042381782 -0.066370755 -0.027627585
000100 bc 22 88 bc cf e4 74 3d 7c 06 8e bc 42 93 35 bd
       -0.016618125 0.05978852 -0.017337076 -0.04432989
000110 a1 b9 93 3c 8b 56 a9 bd 64 70 0a 3d d4 87 81 3d
       0.01803285 -0.0826846 0.03379859 0.06324735
000120 cd 85 76 bc 31 81 ad 3d 48 9f a3 3c 69 fa dc 3c
       -0.015046549 0.08471907 0.019973412 0.026974874
000130 71 f7 51 3d a1 42 bb 3c 08 ff 95 bc 13 96 80 3d
       0.05126137 0.02285892 -0.018310085 0.062786244
000140 8e ce 8e 3d de 61 0c 3d b1 c6 c4 3c 13 3b 7e bc
       0.06972991 0.03427302 0.024020525 -0.015517014
000150 dc 27 9d 3d 3d be 9d bc dc 05 6d 3c 24 ee 0e 3d
       0.07673618 -0.019255752 0.014466729 0.034895077
000160 2b a5 b2 bd e8 34 92 3c bb 78 04 3d 40 0a 45 3d
       -0.087229095 0.017847493 0.0323417 0.04810548
000170 68 2f 6f bd a5 f1 d9 3c 96 13 95 bd c0 35 fc 3c
       -0.05839482 0.026604483 -0.07279126 0.030787349
000180 c6 1e 9f 3d 04 30 5f 3d 90 0c 8e bd 56 8f 23 3d
       0.077695414 0.05448915 -0.0693599 0.039931618
000190 f7 b9 9e 3d 6e 85 85 3d be db 2c bd 97 72 88 3b
       0.07750314 0.0651959 -0.04220175 0.004164051
0001a0 d9 36 86 bb e0 26 9b 3c af 98 21 3d fe d9 fd bc
       -0.004095894 0.018939435 0.03945225 -0.030987736
0001b0 f7 5b 53 bb 0a 7f 49 3d 97 66 7b 3c f0 51 0d 3d
       -0.003225086 0.04919342 0.015344284 0.03450197
0001c0 75 d8 22 3c 08 09 3f 3d 6e c2 7c 3d 5e de b2 bd
       0.009939303 0.046639472 0.06170886 -0.087338194
0001d0 67 52 8e bd 08 40 36 bd 12 73 e4 3c 97 bb b5 3d
       -0.06949311 -0.04449466 0.027886901 0.088736705
0001e0 5b 1c 90 bd 02 60 81 3d 6c 1e 78 3d 59 07 8f bd
       -0.070366584 0.0631714 0.060575888 -0.06983823
0001f0 b1 8d 82 3d e8 73 08 bc 4f f4 65 bd 0d a4 ac bd
       0.06374682 -0.008328415 -0.056141194 -0.08429728
000200 ce f4 49 bd 46 b4 83 bd 5b 9d 04 3d 48 64 89 bd
       -0.04930573 -0.06430869 0.03237663 -0.0670858
000210 b7 c5 43 3a d2 82 08 bd da 5f 9e 3d 72 66 3d bd
       0.00074681215 -0.033327885 0.07733126 -0.046240278
000220 5b 18 ab 3d 1b 57 95 3d c5 85 3c bd 68 0b 72 3c
       0.08354255 0.07292005 -0.04602601 0.014773227
000230 60 87 1c bb a9 00 85 bd d8 7d bb bc 1a 77 3c 3c
       -0.00238844 -0.064942665 -0.022887155 0.011503005
000240 0b a9 a9 bd 9d 14 2e bd 62 9c 25 bd bc 40 ce bc
       -0.082841955 -0.042500127 -0.04043234 -0.025177352
000250 ea ce a7 bd 7a a9 f3 bc 70 5f 29 bc 44 3e 62 3d
       -0.081937626 -0.029743899 -0.0103376955 0.055235162
000260 b1 f1 29 bd dc 00 b6 bd 62 d3 61 bd 34 ae 98 bd
       -0.04149026 -0.08886883 -0.05513323 -0.074551016
000270 7d c3 84 bd 8a ff f5 bc 08 44 f2 bb ab 1a 49 bd
       -0.06482599 -0.030029077 -0.007393364 -0.0490977
000280 b0 a5 07 3c 07 8c 6b bd 7c 9e 39 3d fa 8d b9 3d
       0.008279249 -0.057506587 0.045317158 0.09060283
000290 f4 a4 cc bc 94 e6 a8 3d 18 85 17 3c 8e b1 31 bd
       -0.024981 0.08247104 0.009248041 -0.04338222
0002a0 dc ae 66 3d 15 2b a6 3d fa d4 00 3d a6 b5 9d bd
       0.056319103 0.08113686 0.03145311 -0.07700662
0002b0 e8 3e ba bd 44 c3 b3 bd 34 60 47 3d aa cf c1 3c
       -0.0909403 -0.08777478 0.04867573 0.023658592
0002c0 33 5f 3c 3d c0 af b0 3d a3 43 71 bd 48 74 e4 3c
       0.045989227 0.08627272 -0.058902394 0.027887478
0002d0 1d 1e 69 bd 60 ce 1b 3d e0 66 5a 3d ff a0 70 bd
       -0.056913484 0.03803861 0.053320765 -0.058747288
0002e0 12 ab 82 3c c1 68 f1 3b 30 36 cd 3b ac 9f 6e 3d
       0.015950713 0.007367224 0.006262563 0.058257744
0002f0 c0 59 8e bd c0 12 cf bc 8f 6f a4 bd 03 67 35 bd
       -0.06950712 -0.025277495 -0.080290906 -0.044287693
000300 cf dd be 3c 2c 81 8d 3d 7a 0d 8e 3d 6d 42 ef 3c
       0.023299126 0.06909403 0.06936164 0.029206479
000310 88 1e 64 bc 1d 7b 9e 3d 86 d8 75 3c f7 9e 3a 3d
       -0.013923295 0.07738326 0.0150052365 0.045561757
000320 c4 5a 54 bd c8 97 43 bd f9 95 94 bd 22 47 fe bc
       -0.051844373 -0.04775217 -0.072551675 -0.031039778
000330 18 48 53 bd df c8 83 3d 48 f6 a8 3c 80 d3 05 3c
       -0.051582426 0.064347975 0.020625249 0.008168101
000340 14 de 8d bd 40 15 38 bc eb ab ee bc b4 cd 93 3d
       -0.06927124 -0.011235535 -0.029134711 0.07216969
000350 ff 8e 8a 3d 50 ca 47 3c 7c b5 94 bd 1c 77 00 3b
       0.067655556 0.012194231 -0.07261178 0.0019602245
000360 38 19 08 3c 84 17 78 3d 36 b4 09 3d 52 ff a3 3c
       0.008306794 0.0605693 0.03361913 0.020019207
000370 e3 a9 ed 3c 00 15 15 3d eb 56 98 bd 54 bd 31 3d
       0.029011672 0.03639698 -0.07438453 0.043393448
000380 c4 b4 b1 3d 25 0a 02 3d 92 c6 57 bd 18 81 4f 3d
       0.086770564 0.031747956 -0.052679606 0.050660223
000390 a0 60 7b 3b 14 64 b1 3d ea 9f 89 bd e4 f4 91 bd
       0.0038357154 0.086616665 -0.06719954 -0.07126787
0003a0 00 db 6a bb d2 73 61 bd 5c fb 34 bd bb 12 8f bc
       -0.00358361 -0.055042095 -0.044185027 -0.017464986
0003b0 a0 1b 5d 3d 90 11 2b 3c 15 8a ba 3d 70 aa 66 bd
       0.053981423 0.010441199 0.09108368 -0.056314886
0003c0 57 05 93 bd 5a 27 73 bd 08 95 3b bd 67 2b 10 bd
       -0.07178753 -0.0593637 -0.045796424 -0.03519764
0003d0 26 ef 03 3c 7a a3 80 3d ca 59 86 3d 9c 8c a8 bd
       0.008052623 0.06281181 0.06560095 -0.08229944
0003e0 63 31 2a bd 3e 8b 82 bd 5d e1 0f bc 65 94 a7 bd
       -0.041551005 -0.063742146 -0.008781758 -0.08182601
0003f0 39 03 97 ba 4f 84 cb bc b5 f3 53 3c 54 93 4e 3d
       -0.0011521346 -0.024843363 0.012936522 0.05043347

fc2.bias f4 [84]
000000 62 52 8e bd a9 be 39 3c 3c ae a6 3d 0c 50 bc bb
       -0.06949307 0.011336961 0.08138701 -0.005746847
000010 01 26 4e bd 19 6a eb 3d a7 14 0e bd 27 eb 21 bd
       -0.050329212 0.11494846 -0.034687664 -0.0395309
000020 2e 5a 93 bd a6 af 54 3c 90 74 0c bd 94 d7 a5 3d
       -0.07194935 0.012981331 -0.03429085 0.08097759
000030 86 f8 59 bd 7c d7 bb bd 97 4d 17 3d 06 1a 34 3d
       -0.053215526 -0.0917196 0.03693923 0.04397013
000040 d9 21 ee bc 3f 44 0e 3d 84 f6 24 bb d0 b7 5e 3d
       -0.029068874 0.034733053 -0.0025171349 0.054374516
000050 6c 4d cf bc f4 ed 3e 3d 37 b0 b4 bb 71 ae d7 3d
       -0.025305472 0.04661365 -0.0055141705 0.10531319
000060 c2 2b ef 3b 01 40 02 bd af 30 e0 bc 50 79 08 3d
       0.0072989175 -0.03179932 -0.027366964 0.033318818
000070 dc 94 9a 3d 01 16 55 bd e2 03 73 3c cf 17 7b bd
       0.07547924 -0.052022938 0.014832469 -0.061302003
000080 1c f0 20 3c 8f 33 12 bd 55 7d 28 bd 17 6a 7d 3d
       0.009822872 -0.0356937 -0.04113515 0.061868753
000090 fc 0e 46 3d c9 72 53 bc 91 a4 50 bc 43 be 26 bd
       0.048354134 -0.012905785 -0.012734548 -0.04070879
0000a0 2e 97 08 bd 8b ba f2 bc 5e 08 5e 3d dd 77 a1 3b
       -0.0333473 -0.029629966 0.0542072 0.004927619
0000b0 26 85 c8 3d 29 7a de 3b 70 e6 90 bd f4 ac 9b bd
       0.09791021 0.006789465 -0.070752025 -0.076013476
0000c0 07 a8 8b bc c3 ae 9f 3d 7d 9a ff bc 34 37 db bc
       -0.017047895 0.07797005 -0.031201595 -0.026759721
0000d0 f1 e3 50 bd a9 29 84 3d 94 8d b8 3d 30 21 d4 bc
       -0.050998632 0.064532585 0.09011379 -0.025894731
0000e0 48 83 42 3d 53 42 21 3d b2 87 8f bd 3f 20 02 bd
       0.04748848 0.039369892 -0.07008304 -0.031769034
0000f0 91 ef a0 3d 60 bb 79 bd 8d 38 da 3d 4c 07 b0 3d
       0.07858194 -0.06096971 0.106553175 0.08595142
000100 21 b8 5e bd 35 ff c1 bb 89 c1 20 bd 09 62 3b 3d
       -0.054374818 -0.0059203156 -0.03924707 0.04574779
000110 0b b2 8d bd b6 05 61 bd 9e 9d 90 3c 3b 0e a0 3d
       -0.069187246 -0.054937087 0.017653283 0.07815214
000120 19 ce a6 bd 40 5e 3f 3d b8 d3 9c 3d 60 73 b6 3d
       -0.08144779 0.046720743 0.0765757 0.08908725
000130 3a c6 24 bd cc 0e ed bc 0e 44 71 3d d1 01 a2 3d
       -0.040228106 -0.02893772 0.058902793 0.07910503
000140 6b a4 b2 3c 21 7a 46 bd e0 12 6a 3b 83 be a9 bd
       0.021806916 -0.048456315 0.0035716817 -0.0828829

fc3.weight f4 [2, 84]
000000 3e a1 82 bc e6 51 84 3d ca 9e 45 3e 8b 03 e8 3c
       -0.015946027 0.064609334 0.19298854 0.028322002
000010 19 5f 84 3c d1 16 3c be 47 cc 84 3d c0 a9 84 bd
       0.016158627 -0.18368079 0.06484275 -0.0647769
000020 21 23 9c bd f2 81 c0 3d 4e f2 21 b9 98 78 45 bd
       -0.07623888 0.09399785 -0.00015444422 -0.04821071
000030 a7 ea cf bc 41 6d c0 3d dd 76 09 3e 95 50 3e 3e
       -0.025380446 0.093958385 0.13424249 0.18585427
000040 e9 09 c9 3d 97 c4 85 3d 0b 43 ed 3c 69 09 1b be
       0.09816343 0.06531637 0.028962633 -0.15140308
000050 fa 1b 0a bd 4b 67 22 3d 8c 77 31 3c e7 f8 3b be
       -0.033718087 0.03964929 0.010831725 -0.18356667
000060 a4 6c 9b 3d 58 08 1e bd fc 27 8e 3c c0 70 62 3e
       0.07589081 -0.038582176 0.01735305 0.22113323
000070 a7 00 06 3d 95 9f 85 3d c6 45 16 be 5e a7 d2 bd
       0.032715466 0.065245785 -0.14675054 -0.10285829
000080 9f b0 49 bd a0 81 5e bd 90 0e 34 3d eb fc 32 3e
       -0.049240705 -0.05432284 0.0439592 0.17479293
000090 07 0f 40 3d 94 9b 37 3e 3d 9d a9 3d 90 b3 c1 3c
       0.04688933 0.17930442 0.08281944 0.023645192
0000a0 27 c6 ab bd 15 78 c4 3a 1f f0 5d 3e ea 2c c2 3d
       -0.08387404 0.00149894 0.2167363 0.09481223
0000b0 9f 51 ab bd 5d 7e eb bd d4 4e 76 3c 91 9b 94 3d
       -0.08365177 -0.11498711 0.0150334425 0.072562344
0000c0 45 29 52 3d 98 51 4d bd 30 e3 e4 bd b1 28 b4 bd
       0.05130889 -0.050126642 -0.11176145 -0.08796824
0000d0 fa a7 4f bb 95 d7 ad 3d 0a 30 12 be 20 2e 41 3c
       -0.0031685815 0.08488385 -0.14276138 0.011790782
0000e0 56 73 56 3d d5 0e a2 bd 14 a1 39 3d 9f 0f df bd
       0.052356087 -0.07912985 0.04531963 -0.10891651
0000f0 90 37 85 3e 81 f3 fd 3c 0f d9 4b be c3 d7 9c 3d
       0.26018953 0.0309999 -0.1990702 0.07658341
000100 a1 91 d2 bd 21 4b f5 3d 39 ae 9c bd 6f 0a fa 3d
       -0.10281683 0.1197722 -0.07650418 0.12209021
000110 95 be 33 3d 64 45 f2 bd a4 d3 87 bd 24 3a ec bd
       0.043882925 -0.118296415 -0.06632164 -0.11534527
000120 d0 eb 2d bd 24 ed 8a 3e 75 a3 f2 bd 53 99 34 be
       -0.042461216 0.2713405 -0.11847583 -0.17636614
000130 0a 2b b3 3d b9 9c f6 bc 03 cf 1e 3e bc 6b 3a be
       0.087484434 -0.030104028 0.15508656 -0.1820516
000140 7e f1 47 3c 1f 43 40 bd ee 68 36 3e 04 46 59 bd
       0.012203572 -0.04693901 0.17813465 -0.053045288
000150 70 69 38 3d 3a 6b 85 3d 6f 26 8b bc 5f b5 1a bd
       0.045022428 0.065145925 -0.0169861 -0.037770625
000160 e8 db cb 3d e4 cd 62 3e 5d a0 23 bc d8 8e a8 bd
       0.09954053 0.22148854 -0.009986964 -0.0823037
000170 a3 79 31 3c 5d 7d 71 3c b8 81 a8 3c b4 7e 4a bd
       0.010832223 0.014739362 0.020569667 -0.04943724
000180 f8 22 88 bd 42 f2 94 bb 96 ea af bd 49 b8 e1 bc
       -0.06647295 -0.004545481 -0.085896656 -0.027553694
000190 d4 c4 7f bd 23 a4 2c bd 4c 15 3d be 91 55 8e 3d
       -0.06244357 -0.04214872 -0.18465155 0.06949914
0001a0 b8 1c 1b 3d fc bb 13 be 0a c0 e1 bd c7 5d 12 3e
       0.037869185 -0.14427179 -0.11022957 0.14293586
0001b0 22 ab be bd bb 48 93 bd 1a 24 24 3d 59 76 5b be
       -0.09309985 -0.071916066 0.04007349 -0.21431865
0001c0 26 27 0e 3e 4f 82 db 3d 49 f0 46 3e 27 12 28 bd
       0.13882121 0.10718214 0.19427599 -0.041032936
0001d0 51 9f 87 3d f1 6c 0c bb 48 69 a4 bc 17 3e bc bd
       0.06622184 -0.0021427239 -0.020069733 -0.0919153
0001e0 1f 40 07 3e 3f da 18 be b4 d8 4e be 10 3b 7d 3d
       0.13208054 -0.14927004 -0.20199853 0.061823905
0001f0 46 8b 06 3d 53 e6 bd 3d 04 76 4c be 4d 96 00 be
       0.032847665 0.092724465 -0.19966894 -0.12557335
000200 ff c0 22 3e 71 a8 07 3e 6d 2c 1e 3d a5 6e d8 bd
       0.15893935 0.13247849 0.038616586 -0.10567979
000210 5d 5e 5a bd 0e 01 dd 3d e2 6b 80 3c 78 9f 08 bd
       -0.053312648 0.10791217 0.015676443 -0.033355206
000220 5f aa 2e 3d 4e 7c bb 3d d6 55 10 3e a7 05 bb 3d
       0.042642947 0.091545686 0.14095244 0.091319375
000230 ce ec 69 bc c0 ef f3 3c c4 b5 48 bc 2e 1b 54 3d
       -0.01427765 0.029777408 -0.012250368 0.051783733
000240 35 1b 8e bd 7f 2f 9c bd 1f 86 70 3e d3 3f 03 3e
       -0.06938783 -0.07626247 0.23488663 0.12817316
000250 ab cf b2 3d 98 cd 61 be b3 6d 1a bd 54 2e 41 3c
       0.08731016 -0.22051084 -0.037702274 0.011790831
000260 60 9a b0 bd 83 52 57 3d dd 33 c7 bd d1 f6 bb bc
       -0.08623195 0.052568924 -0.09726689 -0.02294484
000270 35 c7 d1 3d df 4a 8b be f9 4c 5c 3c 3e ee 2b 3e
       0.10243074 -0.2720556 0.013446086 0.16790101
000280 00 a8 98 bd 04 06 c3 3d be 9a 56 be 29 78 2f 3c
       -0.074539185 0.09522632 -0.20957467 0.010709801
000290 aa ae 95 bc 3e 6d 6a 3d 34 d7 90 bd b9 e8 e1 bd
       -0.018271763 0.057233088 -0.07072297 -0.110307164

fc3.bias f4 [2]
000000 4b 5c 9a bd 06 31 0a bd
       -0.07537135 -0.03373816
